server/src/nlp/config.pth (torch, 4503 bytes, 6 tensors)

l1.weight f4 [8, 45]
0.13003224 -0.110820346 -0.1326313 -0.04288517 0.051969152 -0.06420037 -0.046303272 0.20206662
-0.07233268 -0.049009956 -0.23092477 0.04029528 -0.2626596 -0.018433765 -0.12833077 -0.1116712
0.23768683 0.15239325 0.17649607 0.14052546 0.15520757 -0.026234504 -0.03099644 0.1634676
0.12295115 0.03445732 -0.07219405 0.05134678 -0.0924993 0.06990516 0.041579045 0.4132964
0.2231772 -0.107140645 -0.18704487 -0.09721925 -0.09086172 0.06811064 -0.1004262 0.19992764
-0.045185603 -0.0989389 0.049417503 -0.09738983 0.0016574451 0.10126029 0.20144074 0.2176292
-0.009918738 -0.0471583 0.18842743 -0.023117585 -0.23149583 0.108869046 0.15076436 0.3302271
0.15125526 0.32830727 0.10266834 0.12365349 0.17590226 0.02960103 -0.079483025 0.07839658
-0.05248383 0.17320915 0.16673197 0.33473974 0.23627204 -0.13066536 0.18642603 0.12863319
0.010631882 0.16117291 0.10519132 0.011012649 -0.2445656 -0.19688351 0.46529198 0.31098628
0.04213898 0.18249404 -0.05755057 0.2766022 0.116753206 0.12723677 0.0065950085 0.18240581
0.20724362 0.08925973 0.2299072 0.042226084 0.24808519 0.22448274 0.18601193 0.028268268
0.15802151 -0.18352504 0.27410522 0.13451757 0.36411247 -0.061478846 0.2910601 0.0037001881
0.019048646 0.13869241 0.13788392 0.2135126 -0.0003650628 -0.12747608 0.08343889 -0.009525632
0.29074168 0.14850046 -0.16198778 0.27856416 0.1559102 0.062949695 0.118247025 -0.03115235
0.019471813 -0.1482653 -0.086571224 0.3722358 0.17311883 0.21903773 0.05232975 -0.17348218
0.2004291 0.19047883 0.20010822 0.14197063 0.078879714 0.11894911 -0.04198387 -0.03987983
0.017897582 0.05376023 -0.12530084 0.060016315 -0.020266986 -0.07343853 0.42322245 -0.14181863
0.11172058 -0.024489861 0.1210616 -0.08463098 -0.064708106 0.04695321 -0.08830304 0.09562262
0.10902982 0.031447127 0.033059627 -0.03774843 -0.024380408 -0.04456766 0.036261857 0.2762056
0.036454596 0.033750825 0.12021975 -0.06655048 0.10218964 0.02872635 0.4517666 0.45400095
-0.07713165 -0.11705234 0.030180203 -0.07241803 0.07289783 -0.03693346 -0.030025087 -0.01942152
0.09650585 0.06681561 -0.14677186 -0.08223327 0.04825694 -0.021983977 0.020501554 0.16149288
0.08060544 0.052091025 0.09018444 -0.21677469 0.07129037 0.1986024 0.3907914 0.09729809
0.089784004 0.08825528 0.28041273 0.15687978 0.11693397 0.119923845 0.11994669 0.13424213
0.0960899 -0.0003523899 0.33498317 0.20888041 -0.040810786 0.12833175 0.19467947 0.03484055
0.024842065 0.011278652 0.15060654 -0.35435885 -0.28881302 0.21442556 0.21463563 0.07615165
0.12268629 -0.040703513 0.37818784 0.052493352 0.18487915 -0.045959335 0.06745702 0.23992553
0.03949657 0.21121126 0.17918918 -0.021660516 0.18525116 0.27919957 -0.070751145 0.18732911
0.34929007 0.060482096 0.06146206 0.2232544 -0.08640267 0.118675955 0.09045181 0.219818
-0.23284191 0.044287905 0.26730615 0.14502263 0.102165796 0.06010746 0.11251915 0.20252697
0.23777336 0.23272496 0.09058449 0.095020704 0.04393109 0.18580657 0.07949304 0.20472293
00000000: 2c27 053e c7f5 e2bd 80d0 07be 5ca8 2fbd
00000010: 9bdd 543d 7c7b 83bd 80a8 3dbd 8dea 4e3e
00000020: 2823 94bd aabe 48bd 8b77 6cbe aa0c 253d
00000030: 527b 86be 6802 97bc 2469 03be dfb3 e4bd
00000040: 2d64 733e fa0c 1c3e 63bb 343e e8e5 0f3e
00000050: bcee 1e3e bee9 d6bc 3fec fdbc 0d64 273e
00000060: d0cd fb3d 1e23 0d3d 79da 93bd 0051 523d
00000070: 4670 bdbd 702a 8f3d ca4e 2a3d 969b d33e
00000080: 9088 643e 8e6c dbbd b188 3fbe e31a c7bd
00000090: b615 babd 977d 8b3d 40ac cdbd d5b9 4c3e
000000a0: 8a14 39bd 7aa0 cabd 026a 4a3d 5274 c7bd
000000b0: a13e d93a 8e61 cf3d 7b46 4e3e 30da 5e3e
000000c0: 3482 22bc 1029 41bd 1ff3 403e 1761 bdbc
000000d0: 3e0d 6dbe bcf6 de3d f961 1a3e 8713 a93e
000000e0: a9e2 1a3e e417 a83e c743 d23d 0a3e fd3d
000000f0: b91f 343e dc7d f23c ffc7 a2bd 638e a03d
00000100: 49f9 56bd bd5d 313e c9bb 2a3e 0263 ab3e
00000110: 4cf1 713e 24cd 05be 77e6 3e3e 6bb8 033e
00000120: 5831 2e3c 830a 253e 8c6e d73d 666e 343c
00000130: 686f 7abe d59b 49be c03a ee3e 9839 9f3e
00000140: ec99 2c3d b8df 3a3e 26ba 6bbd ce9e 8d3e
00000150: 4e1c ef3d 5b4a 023e f11a d83b 97c8 3a3e
00000160: ac37 543e cecd b63d cb6c 6b3e 42f5 2c3d
00000170: 0b0a 7e3e cede 653e e979 3e3e db92 e73c
00000180: 64d0 213e fded 3bbe 8557 8c3e f9be 093e
00000190: f36c ba3e 3ed1 7bbd d405 953e db7e 723b
000001a0: e80b 9c3c 6205 0e3e 7131 0d3e 0ca3 5a3e
000001b0: e665 bfb9 1789 02be 02e2 aa3d 6511 1cbc
000001c0: 18dc 943e 8110 183e 20e0 25be f69f 8e3e
000001d0: eca6 1f3e c5eb 803d 7f2b f23d 3733 ffbc
000001e0: 5a83 9f3c dcd2 17be 414c b1bd b195 be3e
000001f0: 1046 313e 6d4b 603e b857 563d 50a5 31be
00000200: 493d 4d3e e20c 433e 2be9 4c3e c060 113e
00000210: b08b a13d 979b f33d 47f7 2bbd 0859 23bd
00000220: f39d 923c b033 5c3d dd4e 00be abd3 753d
00000230: f306 a6bc f166 96bd 9db0 d83e e738 11be
00000240: c2cd e43d f69e c8bc 25ef f73d 0253 adbd
00000250: af85 84bd 0252 403d 39d8 b4bd cbd5 c33d
00000260: 074b df3d b4ce 003d 8869 073d 199e 1abd
00000270: 6cb9 c7bc 948c 36bd 5087 143d d26a 8d3e
00000280: 6a51 153d 4e3e 0a3d c635 f63d 9e4b 88bd
00000290: cd48 d13d 8653 eb3c f44d e73e d072 e83e
000002a0: 33f7 9dbd 23b9 efbd 793c f73c e74f 94bd
000002b0: 754b 953d 8a47 17bd 2cf7 f5bc e119 9fbc
000002c0: dca4 c53d 9fd6 883d 5d4b 16be eb69 a8bd
000002d0: 12a9 453d be17 b4bc e0f2 a73c 645e 253e
000002e0: 7714 a53d 665d 553d 9fb2 b83d 2ffa 5dbe
000002f0: af00 923d 6d5e 4b3e cf15 c83e 3944 c73d
00000300: ade0 b73d 2fbf b43d 4292 8f3e 18a5 203e
00000310: 147b ef3d a29a f53d 9ca6 f53d c576 093e
00000320: c8ca c43d f9c0 b8b9 ea82 ab3e bfe4 553e
00000330: 3629 27bd 6669 033e 0e5a 473e f7b4 0e3d
00000340: 9681 cb3c 18ca 383c 9a38 1a3e 866e b5be
00000350: 4ddf 93be 6092 5b3e 71c9 5b3e 65f5 9b3d
00000360: f342 fb3d bab8 26bd d6a1 c13e 4503 573d
00000370: f650 3d3e db3f 3cbd e826 8a3d 0aaf 753e
00000380: 28c7 213d c447 583e 5e7d 373e 6571 b1bc
00000390: 7bb2 3d3e 3ff3 8e3e fae5 90bd 34d3 3f3e
000003a0: 26d6 b23e 13bc 773d a4bf 7b3d cd9c 643e
000003b0: e2f3 b0bd 610c f33d cc3e b93d f817 613e
000003c0: 1c6e 6ebe 3c67 353d 5adc 883e d080 143e
000003d0: 4d3c d13d 3d33 763d 7170 e63d 3b63 4f3e
000003e0: dc7a 733e 744f 6e3e 5c84 b93d 379a c23d
000003f0: 16f1 333d 1444 3e3e 3fcd a23d e3a2 513e

l1.bias f4 [8]
0.3792155 0.2517454 0.3663255 0.14149347 0.23774071 0.35652533 0.18282047 -0.14095493
00000000: 8928 c23e c6e4 803e 048f bb3e aae3 103e
00000010: 4d72 733e 7d8a b63e 4a35 3b3e 7d56 10be

l2.weight f4 [8, 8]
-0.2788183 0.36178747 0.40844098 -0.23564978 0.38849878 -0.100612454 0.73214334 -0.3176834
0.5876211 -0.36958718 -0.08566082 0.7520319 -0.5164115 0.7372797 -0.29243168 0.047302812
0.27731863 0.65402603 0.36994156 0.26914465 0.56367606 0.40093702 0.5644992 0.2762356
-0.24087177 0.5388218 0.5961216 -0.33781585 0.58360296 0.03237297 0.2503844 0.30236933
-0.17218909 0.54820466 0.16729414 -0.26255426 0.6724626 0.0483156 0.3213863 -0.073088616
0.5585017 -0.40022966 -0.03675601 0.47456625 -0.46347922 0.41775507 -0.14371145 -0.11942567
0.45352718 -0.3259555 0.015945101 0.4091965 -0.3927543 0.5773181 -0.46936843 0.21408275
0.5355302 0.14701054 0.3007163 -0.112924814 0.38673446 0.4567459 0.5406086 0.33038405
00000000: 46c1 8ebe 353c b93e 2d1f d13e 2d4e 71be
00000010: 50e9 c63e e70d cebd bf6d 3b3f 66a7 a2be
00000020: 566e 163f 883a bdbe f16e afbd 2a85 403f
00000030: 8b33 04bf 5dbe 3c3f 9bb9 95be 98c0 413d
00000040: b5fc 8d3e 406e 273f fb68 bd3e 54cd 893e
00000050: 134d 103f 9e47 cd3e 0583 103f c16e 8d3e
00000060: 17a7 76be 3af0 093f 6d9b 183f 33f6 acbe
00000070: 0167 153f 8599 043d 6232 803e 27d0 9a3e
00000080: 5652 30be 2457 0c3f 284f 2b3e 836d 86be
00000090: 8226 2c3f 94e6 453d bf8c a43e 7caf 95bd
000000a0: f8f9 0e3f e7ea ccbe 788d 16bd 59fa f23e
000000b0: 264d edbe fee3 d53e 1829 13be 7295 f4bd
000000c0: b734 e83e a4e3 a6be 4d9f 823c 3482 d13e
000000d0: 1717 c9be 1ecb 133f 0f51 f0be 8238 5b3e
000000e0: 8218 093f ee89 163e 7df7 993e 2045 e7bd
000000f0: 0f02 c63e 99da e93e 5365 0a3f 1928 a93e

l2.bias f4 [8]
0.47386235 0.2620091 0.52596545 0.42185915 0.3353783 0.36495632 0.3341244 0.23990521
00000000: 169e f23e 0f26 863e aca5 063f ecfd d73e
00000010: b4b6 ab3e 8edb ba3e 5a12 ab3e b6a9 753e

l3.weight f4 [4, 8]
0.09759505 -0.63737816 -0.5077475 0.0917399 -0.54813474 -0.3994506 -0.3216876 -0.13608783
-0.5607443 0.59086335 -0.055647478 -0.07498731 -0.5670589 0.3473721 0.6490111 0.2509573
0.6568604 -0.5554985 0.34614792 0.55468845 0.36214772 -0.5052701 -0.6144606 0.4298896
0.0583607 -0.598054 -0.14704286 -0.40295348 -0.19385016 -0.15367404 -0.5819734 -0.6385198
00000000: eadf c73d 372b 23bf bdfb 01bf 21e2 bb3d
00000010: 8f52 0cbf ca84 ccbe 3db4 a4be 9c5a 0bbe
00000020: f08c 0fbf d242 173f 9cee 63bd f292 99bd
00000030: c62a 11bf c2da b13e 9725 263f 7a7d 803e
00000040: 0128 283f 2635 0ebf 4d3a b13e 1000 0e3f
00000050: 6d6b b93e 6259 01bf 4a4d 1dbf 7d1a dc3e
00000060: a10b 6f3d 111a 19bf 6792 16be eb4f cebe
00000070: a880 46be ba5c 1dbe 35fc 14bf 0976 23bf

l3.bias f4 [4]
-0.21420296 0.0058110715 -0.21376617 -0.48136187
00000000: 0558 5bbe cd6a be3b 85e5 5abe 1075 f6be
