server/config.pth (torch, 4503 bytes, 6 tensors)

l1.weight f4 [8, 45]
0	0x3eb19f7f	0.34691998
1	0x3e113ad9	0.14182605
2	0x3e2bfa1f	0.16794632
3	0x3e37dbbf	0.1795492
4	0x3e8cffa7	0.27538797
5	0x3c4914fe	0.012273071
6	0xbd8003f6	-0.062507555
7	0x3e05a2a9	0.13050331
8	0x3dcba46a	0.09943469
9	0xbd7695f0	-0.060201585
10	0x3ec27024	0.37976182
11	0x3d3707cb	0.044685166
12	0x3d9b195c	0.07573196
13	0x3e3a2448	0.18177903
14	0x3e5c120f	0.21491264
15	0x3d950e27	0.0727809
16	0x3d2b1d90	0.04177624
17	0x3e61c82f	0.2204902
18	0x3e6374c3	0.2221251
19	0x3cf45457	0.029825373
20	0x3da076b2	0.07835139
21	0x3d73f696	0.059561335
22	0x3ed60ef0	0.4180827
23	0x3d8b1aaf	0.06792199
24	0x3e8c30b1	0.273809
25	0x3e56868c	0.20949763
26	0x3e4b0e5b	0.19829695
27	0x3d182aff	0.03715038
28	0x3e3c2296	0.18372568
29	0x3d7ac8d5	0.061226685
30	0x3e285b65	0.16441114
31	0x3d60ec87	0.05491307
32	0x3d2ddbea	0.042446055
33	0x3e780445	0.24220379
34	0x3df5ca3b	0.12001463
35	0xbcfe77cd	-0.031062985
36	0x3d1ba4a2	0.037998803
37	0x3e1a8edc	0.15093559
38	0x3e8b85e5	0.2725059
39	0x3ea17475	0.31534162
40	0x3dd4f312	0.103979245
41	0x3e45db3e	0.19321916
42	0x3dc68279	0.096928544
43	0x3e582324	0.21107155
44	0x39ecc29b	0.0004515842
45	0xbdcb1573	-0.099162005
46	0xbbcba92c	-0.006215235
47	0x3d5a205b	0.053253513
48	0xbd90ffdb	-0.070800506
49	0xbd0be651	-0.034155194
50	0x3d4615b4	0.04836054
51	0x3d064fcf	0.032790955
52	0xbd72cba0	-0.059276223
53	0x3dab577f	0.08366298
54	0xbdd88c8b	-0.105736814
55	0x3d1870d3	0.037216973
56	0xbe03f6e5	-0.12887152
57	0x3d624129	0.055237923
58	0x3dcbc0ac	0.099488586
59	0x3d34be3d	0.044126738
60	0x3ca0ff59	0.01965301
61	0xbdc1bd33	-0.09459915
62	0xbe306667	-0.17226563
63	0xbd10c21d	-0.03534137
64	0xbc797d30	-0.015227601
65	0x3c9c90ec	0.019112073
66	0xbd602405	-0.05472185
67	0xbddbee43	-0.10738804
68	0xbc128521	-0.008942873
69	0xbe0d122f	-0.13776468
70	0x3c867bf0	0.01641652
71	0xbd6559f0	-0.055993974
72	0x3dc42808	0.09577948
73	0xbd2ca546	-0.042149805
74	0xbd3b0ae9	-0.0456647
75	0xbd5e1bd2	-0.05422575
76	0xbcf866e4	-0.0303225
77	0x3c9d4674	0.019198634
78	0x3ca4f0fc	0.020134442
79	0x3ce0fa52	0.027463112
80	0x3b079455	0.0020687778
81	0xbe15a2f6	-0.14612946
82	0xbe07b303	-0.13251881
83	0x3c829f0b	0.015944978
84	0xbc354fb0	-0.011066362
85	0x3db77c9a	0.08959313
86	0xbdfa5936	-0.12224047
87	0xbe0c4848	-0.13699448
88	0xbe12d56a	-0.14339224
89	0x3d0904a1	0.03345168
90	0x3ebdc2ce	0.37062687
91	0x3ddf2cf5	0.10897247
92	0x3b514569	0.003193224
93	0xba3e2c34	-0.00072545116
94	0x3e581f60	0.21105719
95	0xbd801ded	-0.06255708
96	0x3d5f8891	0.0545736
97	0x3ee24ec8	0.4420073
98	0x3e470e38	0.19439018
99	0xbd65fe1e	-0.05615055
100	0x3e348922	0.17630437
101	0x3d3ffcdc	0.046872005
102	0x3e4a9e64	0.19786984
103	0x3c6f4405	0.014603619
104	0x3e56c668	0.20974123
105	0x3ae46dc1	0.0017427729
106	0x3dbbf03b	0.0917668
107	0x3e1e8196	0.1547912
108	0x3ec49fe5	0.3840324
109	0x3e7f5dbf	0.24938105
110	0x3d672318	0.056429952
111	0x3cda4862	0.026645843
112	0x3dbbac59	0.09163732
113	0x3dbe6ae5	0.09297732
114	0x3eb50987	0.3535883
115	0x3e3494a3	0.17634825
116	0x3dc4bb8e	0.09606086
117	0x3c7d1504	0.015446905
118	0x3e1d5762	0.15365365
119	0xba890336	-0.0010453227
120	0x3e48f2f3	0.19623928
121	0x3f091f5e	0.5356349
122	0x3ee43ba0	0.4457674
123	0x3e8d78d7	0.27631256
124	0x3e76a5f5	0.24086745
125	0x3e5a2f63	0.21307139
126	0xbd21ace9	-0.03947154
127	0x3d002eec	0.03129475
128	0x3e030861	0.12796165
129	0x3eb65861	0.35614303
130	0x3e8425df	0.25810143
131	0xbccfec96	-0.025381368
132	0x3ea8d8ec	0.32977998
133	0x3d011fd6	0.0315245
134	0x3e1d678f	0.15371536
135	0x3e2f8fce	0.17144701
136	0x3e7554e5	0.23958166
137	0x3e878fc6	0.26476878
138	0x3e10c345	0.1413699
139	0xbcaea82e	-0.021320429
140	0x3d1049b6	0.035226546
141	0x3dcac3ea	0.09900649
142	0xbe11bf84	-0.14233214
143	0x3eacbedc	0.33739364
144	0x3e6d4e80	0.23174477
145	0x3eac3f08	0.3364184
146	0x3e0efe3b	0.13964169
147	0x3e30cb7c	0.17265123
148	0x3d6f7bc7	0.058467653
149	0x3e8819a5	0.26582065
150	0x3e953836	0.29144448
151	0xbc5a6bde	-0.013331382
152	0x3c519a1d	0.012793091
153	0xbbe5902e	-0.007005713
154	0xbdb26e34	-0.08712426
155	0x3d575ec0	0.052580595
156	0x3e56a14a	0.20959964
157	0x3eb31886	0.34979647
158	0x3e0e7d44	0.13914973
159	0xbd9b02d5	-0.075688995
160	0x3d51cea0	0.051222444
161	0x3ea20908	0.31647515
162	0x3d4844fc	0.048893914
163	0x3e644bf4	0.22294599
164	0xbc1860d5	-0.00930043
165	0x3d61b630	0.05510539
166	0xbe41a7b9	-0.18911637
167	0xbe41b881	-0.18918039
168	0x3e889eb0	0.2668357
169	0x3edb890f	0.42878005
170	0x3db0303a	0.086029485
171	0x3e21bf27	0.15795575
172	0xbe01404d	-0.12622185
173	0x3ed5f272	0.41786534
174	0x3dab1fa3	0.083556436
175	0xbd7e9b5a	-0.062159874
176	0x3e771383	0.24128537
177	0x3dc3ebb9	0.09566445
178	0x3ea18cc3	0.31552705
179	0x3df07fd5	0.11743132
180	0x3eabb27c	0.3353461
181	0x3dd3fe46	0.10351233
182	0x3d985eee	0.074399814
183	0x3e412b6c	0.1886422
184	0x3e7fd35f	0.24982975
185	0x3d32e599	0.043675993
186	0x3e1207f3	0.14260845
187	0x3ee621cd	0.44947663
188	0x3e56d60c	0.2098009
189	0xbcb67ff3	-0.022277808
190	0x3ce17808	0.027523056
191	0x3dfea347	0.124334864
192	0x3db6e68b	0.08930691
193	0xbdc54ef6	-0.09634201
194	0x3d57363f	0.052541967
195	0x3e6c8e40	0.23101139
196	0x3e6aad8e	0.22917768
197	0x3e5d0a58	0.21585977
198	0x3e95a83a	0.2922991
199	0x3ec1c258	0.37843585
200	0x3eb88c4c	0.36044538
201	0x3e37d0ed	0.17950793
202	0x3e4817e6	0.19540367
203	0x3e832876	0.25616807
204	0x3ecd2b8e	0.40072292
205	0xbd259015	-0.04042061
206	0xbd0a7502	-0.033802994
207	0xbd3e42cc	-0.04645042
208	0x3d2a4210	0.04156691
209	0x3dd27724	0.102766305
210	0x3eaf9b86	0.34298342
211	0x3f06fbe5	0.5272811
212	0x3ebf99d9	0.37422064
213	0xbc84f33e	-0.016229268
214	0x3d6a13eb	0.0571479
215	0x3e4af9b6	0.1982182
216	0x3dd20195	0.10254208
217	0x3ea8ed51	0.32993558
218	0xbcf6d2ae	-0.030129757
219	0x3eb16da0	0.3465395
220	0x3d89ffc1	0.06738234
221	0xbcc76f81	-0.024345161
222	0x3eaf8d33	0.34287414
223	0x3dd64ef5	0.104642786
224	0x3e9a190b	0.3009723
225	0x3e245516	0.16048083
226	0x3d28d895	0.041222174
227	0x3e247a3e	0.16062257
228	0x3e81e352	0.25368744
229	0x3d34f159	0.04417548
230	0x3e6f07e7	0.23342858
231	0x3d6287f9	0.055305455
232	0xbe65e6d6	-0.22451338
233	0x3ea0bf56	0.31395978
234	0x3e686508	0.2269479
235	0x3ea6142f	0.32437274
236	0x3e1964e8	0.14979899
237	0x3eb29a9e	0.3488359
238	0x3de7e62d	0.113231994
239	0x3e23d551	0.15999343
240	0x3e97f955	0.29682413
241	0x3d9a10f5	0.075227655
242	0x3d9477b8	0.07249397
243	0xbd88423e	-0.0665326
244	0x3d82d2eb	0.06387886
245	0x3e414a32	0.1887596
246	0x3d476792	0.048682757
247	0x3e84d2b6	0.2594201
248	0x3e3ec0b0	0.18628192
249	0xbd669568	-0.05629483
250	0x3e64f688	0.22359669
251	0x3df5a36c	0.11994061
252	0x3d67ce04	0.056592956
253	0x3e506ea5	0.20354708
254	0x3e3e9a9b	0.18613665
255	0x3d91a274	0.071110636

l1.bias f4 [8]
0	0x3ec4d681	0.38444903
1	0xbd8548c0	-0.065080166
2	0x3ec7246f	0.38894984
3	0x3e2faee6	0.17156562
4	0x3ed235a6	0.41056556
5	0x3e915f07	0.28392813
6	0x3ea97bed	0.3310236
7	0x3e97eb9d	0.29671946

l2.weight f4 [8, 8]
0	0x3ebf3864	0.3734771
1	0x3ce75343	0.028237944
2	0x3f279590	0.6546259
3	0x3d9917f8	0.07475275
4	0x3f0dfe59	0.5546623
5	0x3d5ee2f8	0.054415673
6	0x3e6d1dfa	0.23155966
7	0x3ee1c705	0.44097152
8	0x3e852365	0.26003566
9	0xbe9a7dfc	-0.30174243
10	0x3f42b00b	0.7604987
11	0xbeeddc29	-0.4645703
12	0x3ee27e18	0.44236827
13	0xbf081f9a	-0.5317322
14	0xbf266194	-0.6499264
15	0xbe727c15	-0.23680146
16	0x3dff02ad	0.12451682
17	0x3e1b13aa	0.1514422
18	0x3e7030b0	0.23456073
19	0x3f315fc1	0.69286734
20	0xbec7df7e	-0.39037699
21	0x3f36f4dc	0.71467376
22	0x3f21184f	0.62927717
23	0x3e1ffde0	0.1562419
24	0x3e04080a	0.12893692
25	0xbe22120a	-0.15827194
26	0xbe89be26	-0.26902884
27	0x3f383d62	0.7196866
28	0xbcbe8ab9	-0.023259507
29	0x3f4bd66e	0.7962407
30	0x3e787ef0	0.24267173
31	0x3ebb979b	0.36639103
32	0xbe94137a	-0.2892111
33	0xbcf11380	-0.029428244
34	0xbe040724	-0.12893349
35	0xbe32cebf	-0.1746168
36	0x3de31124	0.11087254
37	0xbe54fc90	-0.2079947
38	0xbd99d1d4	-0.07510725
39	0x3e9cc209	0.30616787
40	0x3e8c8190	0.27442598
41	0xbcf9b1b0	-0.030480236
42	0xbe8357bf	-0.25652882
43	0x3f03c288	0.51468706
44	0x3dc96bae	0.098349914
45	0x3e9cb1e0	0.30604458
46	0x3f1459ca	0.5794951
47	0x3f17ddb5	0.59322673
48	0x3eb723e7	0.3576958
49	0xbe9125b1	-0.2834907
50	0x3ea96a2e	0.3308882
51	0x3d9bcf30	0.07607877
52	0x3f1d6ee4	0.6149733
53	0x3d53d401	0.051715855
54	0x3ed9bfa2	0.42529017
55	0x3ecf3468	0.4046967
56	0xbe62600e	-0.22106954
57	0xbd701dcb	-0.058622163
58	0x3e0252a5	0.12726839
59	0xbeb06835	-0.34454504
60	0xbe672015	-0.22570832
61	0x3c9eb180	0.019371748
62	0x3e8f74ae	0.28018707
63	0xbe93fcad	-0.28903714

l2.bias f4 [8]
0	0x3daa2b03	0.08308985
1	0x3edac528	0.42728543
2	0x3e2cf01a	0.16888466
3	0x3ea64f0d	0.32482186
4	0xbe424858	-0.1897291
5	0xbd876720	-0.066114664
6	0x3e8d3461	0.27579024
7	0x3c8c17da	0.017101217

l3.weight f4 [4, 8]
0	0xbf21b991	-0.63173777
1	0xbedb4d23	-0.42832288
2	0xbeb8ec60	-0.3611784
3	0x3e34383c	0.17599577
4	0xbd588160	-0.052857757
5	0xbe2af14f	-0.16693614
6	0xbf0ad300	-0.5422821
7	0x3e1cb024	0.15301567
8	0x3c929932	0.017895315
9	0x3f330e8e	0.69944084
10	0xbeafc659	-0.34331015
11	0xbf12fefe	-0.5742034
12	0x3d8ffb88	0.07030398
13	0xbeb392a9	-0.3507283
14	0x3edf53e7	0.436187
15	0xbe2766fc	-0.16347879
16	0xbda9aa87	-0.08284479
17	0xbf0d9945	-0.55311996
18	0x3eca4172	0.39503056
19	0x3edbdbf2	0.42941242
20	0xbeae251d	-0.3401269
21	0x3f1c4c60	0.6105404
22	0x3eeadd05	0.4587175
23	0xbe8c7756	-0.27434796
24	0xbf20face	-0.628827
25	0xbe4626ae	-0.19350693
26	0xbd81ebd9	-0.063438125
27	0xbded9769	-0.11601145
28	0x3e0a9524	0.13533455
29	0xbf3d8c50	-0.74042225
30	0xbb3ad986	-0.0028511002
31	0x3e0331c6	0.12811956

l3.bias f4 [4]
0	0x3da6de97	0.081479244
1	0x3ed3e3fe	0.41384882
2	0x3e8b1378	0.2716329
3	0xbed33735	-0.41253057
