server/config.pth (torch, 5591 bytes, 6 tensors)

l1.weight f4 [8, 67]
000000 1a cf 0e 3e 02 df 03 3c 3f 20 f4 3e 1c b6 03 bf
       0.1394619 0.008048775 0.47680852 -0.5144975
000010 0c d0 93 3d 49 6c 9d 3c 8a f0 2e bd 12 c5 f5 bd
       0.07217416 0.019216673 -0.042709865 -0.12000479
000020 f2 1e c4 bd d3 cf aa 3e 2b e3 af 3e f4 2e 21 3d
       -0.09576215 0.33361682 0.34353003 0.03935142
000030 76 85 63 bb a2 23 ee 3d cc ef e7 bd c1 70 25 3f
       -0.0034717 0.1162789 -0.113250345 0.64625174
000040 d2 cb 13 3f 25 87 d7 bd 18 95 2e be 75 0c 55 bd
       0.5773288 -0.10523824 -0.17049062 -0.052013833
000050 4c b0 2e 3e 46 e9 3f be dc 19 20 be f8 97 92 3e
       0.1705944 -0.1874133 -0.15634865 0.28631568
000060 eb a9 86 3c 5b fd 31 3e 6e 25 b2 3e d1 9e 11 3e
       0.016438445 0.17381804 0.34794182 0.1422074
000070 87 ce 87 3e 3a 42 9f bd 81 78 7a be c2 6b 9c 3e
       0.26524755 -0.077763036 -0.24460031 0.30550963
000080 4d cc 11 3e 3d 9c a5 3e 13 fa 48 bd 4e 65 b5 bd
       0.14238091 0.32345763 -0.049066614 -0.08857213
000090 e1 1d 74 3d 78 ae f2 bd 18 11 28 3e 0e 0f 19 bd
       0.059598807 -0.118496835 0.16412771 -0.037367873
0000a0 62 ef 83 3e 69 06 29 3e ad a7 0f 3f 66 e6 3e 3e
       0.25768572 0.16506352 0.5611523 0.18642578
0000b0 74 9a bf 3e 25 c2 70 be 6e d6 87 be 3f 57 70 3e
       0.37422526 -0.2351156 -0.26530784 0.23470782
0000c0 10 f3 0a 3e 00 84 07 3f 99 8d 44 3f 6d 20 d3 3d
       0.13569283 0.5293579 0.7677856 0.10308919
0000d0 f6 b9 ed b8 7b 41 b0 3e 99 05 a5 3e a4 d7 a1 be
       -0.000113356786 0.34424958 0.32230833 -0.31609833
0000e0 ad 74 1d bd 75 0c 49 3f fc 0d 0b 3e 98 91 a9 3e
       -0.03844135 0.7853463 0.13579553 0.33118892
0000f0 5d 4b 2f 3d ab 99 c1 3d 5a a1 22 bd aa 0a 48 be
       0.04279648 0.09453138 -0.039704658 -0.19535318
000100 b0 c9 26 3e 86 51 62 3d 11 06 bb 3d 94 7f 05 3f
       0.16287875 0.055253528 0.091320165 0.52147794
000110 06 15 a5 3d 69 a7 82 be 65 09 f8 be be 0b 9b 3e
       0.080606505 -0.2551835 -0.48444667 0.30282396
000120 d3 69 90 3e 25 77 6b 3e d9 8d 6b 3d 01 15 ed 3c
       0.28205737 0.22994669 0.057508323 0.02894068
000130 b4 96 25 bb d4 73 e8 3e 9d 61 85 bd fd 1e 20 3e
       -0.0025266828 0.4540087 -0.06512759 0.15636821
000140 7a a6 00 bf a5 b0 05 3f 3e 54 46 be 8b c8 39 be
       -0.50254023 0.52222663 -0.19368073 -0.18142907
000150 ca 97 df 3b f3 21 e5 3e 7a fa e1 bd 7a e2 80 3e
       0.0068235146 0.44752464 -0.11034103 0.25172788
000160 40 93 be 3e bf b9 f2 bc 00 39 85 3c b4 e8 2c 3e
       0.37221718 -0.029629586 0.016262531 0.16885644
000170 d3 d7 e4 3e 16 1f 19 be 51 47 85 3e 68 8d f3 3c
       0.4469591 -0.14953265 0.26030973 0.029730514
000180 e8 8a ca 3d c0 66 cf 3e c7 c1 4a be fe 3f a6 3e
       0.098897755 0.4050808 -0.19800483 0.32470697
000190 03 cc d4 3e 81 1f bc 3e 47 eb 52 3e 54 4e 16 3e
       0.415619 0.36742786 0.20597564 0.14678317
0001a0 3f e7 ac bd 8d e8 b6 3e 73 ae 28 3e 22 37 79 be
       -0.08442544 0.35724297 0.16472797 -0.24337438
0001b0 d9 a2 b2 3c 11 f3 2d 3f 21 8a ae 3d 30 9a a4 3e
       0.021806167 0.67949015 0.0852244 0.32148886
0001c0 df 67 15 3f f7 f7 ab 3e 92 9c 1d 3d 30 02 36 be
       0.5836162 0.3358762 0.038479395 -0.17774272
0001d0 5b 99 be be d2 f0 4c be b6 f7 28 3d ec 0a 36 3e
       -0.37226376 -0.2001374 0.04125186 0.17777604
0001e0 da c2 44 be 44 d9 19 3d 7f 34 17 3f 68 59 ba 3e
       -0.19214955 0.037560716 0.5906448 0.36396337
0001f0 bb 9e 8f be 08 6e 35 be e0 45 94 be 8b b5 05 be
       -0.2805079 -0.17717755 -0.2895956 -0.13057534
000200 47 c1 da bd f4 5e 08 3d f8 9b 83 be a5 ae c8 3e
       -0.10681396 0.03329368 -0.25704932 0.39195743
000210 db 9e fb 3d 58 35 cb 3e a8 be 62 3e 2a cb a6 3d
       0.12286159 0.39689136 0.22143042 0.08144219
000220 15 50 d1 3e cf c3 c2 3e 2d 9e 10 be d0 4f 3e be
       0.4088141 0.38040015 -0.1412284 -0.18585134
000230 40 66 8a 3e 3f 72 c8 bd 6d 2b 82 bd ec 8e 60 be
       0.27031136 -0.09787416 -0.06355939 -0.2192952
000240 62 4c 02 3f ed b3 2f 3e c5 c4 cf 3d 81 b5 bb bc
       0.508978 0.1715848 0.10144953 -0.022913696
000250 af ac cb be 6d 8d c6 be 3b 9a 3b bd 8b 7d 60 be
       -0.39780185 -0.38779774 -0.045801383 -0.21922891
000260 e5 a3 d0 be 11 c7 ee 3d 22 d8 24 3e eb bd ad be
       -0.40750042 0.11659063 0.16098073 -0.33933958
000270 bf d9 9d 3d c7 6b 64 3e 28 c1 89 3e 42 e1 5f 3e
       0.077075474 0.22306739 0.2690518 0.21863273
000280 3b dc 2e bd b2 69 8a 3e 8c ca 25 3e 8a 40 50 be
       -0.042690497 0.27033764 0.16190547 -0.2033712
000290 02 fa 80 be 98 d2 34 3e 5e 50 3a 3e d3 b6 12 3f
       -0.2519074 0.1765846 0.1819472 0.5731022
0002a0 61 e0 54 3a e3 01 da 3a a0 f1 d5 bd 4a bb d7 3d
       0.0008120593 0.0016632642 -0.10446477 0.105337694
0002b0 96 c4 8f bc b0 4b ca bd 58 be 55 3e af 82 74 3e
       -0.017549794 -0.098777175 0.20873392 0.23877977
0002c0 b9 72 57 3f f5 51 20 3e c1 97 21 3f dc 59 d1 be
       0.8415943 0.15656264 0.63122183 -0.4088887
0002d0 2a f5 9f be e7 22 8a 3e 62 f8 d6 3b 6c b9 f7 3e
       -0.31241733 0.26979753 0.0065603713 0.48383653
0002e0 c1 0a f2 be de 6d 0a bc d5 33 d1 3a 90 cd ed 3e
       -0.4727383 -0.008449046 0.0015960882 0.46445894
0002f0 92 56 eb 3e c3 cc d0 be d7 7f 64 3e db f2 9c be
       0.45964485 -0.4078122 0.22314392 -0.30654034
000300 32 86 f8 3d 5e 64 d4 3e 0d c6 ee 3d 3e 5e d5 3d
       0.12134971 0.41482824 0.11658869 0.10418366
000310 b6 da 84 bd aa 05 25 3e ad 0f b7 3e 1e 07 93 3d
       -0.06487028 0.16115442 0.35754147 0.07179092
000320 44 30 b6 3d 55 81 da 3d a9 aa 45 3d f4 10 d7 3e
       0.08895925 0.106691994 0.048258457 0.42005122
000330 27 36 04 bf 8a 78 da 3d f5 ad 01 3e 6a 22 26 3c
       -0.5164513 0.10667522 0.12664016 0.010140041
000340 7f 3d 5d 3e cb 75 a1 bc 88 e9 a5 3e 7d 32 ce be
       0.2160549 -0.019709488 0.32404733 -0.40272895
000350 a0 d2 85 3e de 0f 1b 3e 98 a3 80 3d 3e 54 00 3f
       0.26137257 0.15142772 0.06281203 0.50128543
000360 c4 57 0f 3f be 19 f6 3e a3 44 1e 3e 1a 75 90 3e
       0.55993295 0.48066515 0.1545587 0.2821434
000370 17 ff 71 39 8b dd 65 3e d4 8d 29 3e 64 ab cc bd
       0.0002307858 0.22447793 0.1655801 -0.09993628
000380 9e 71 cf 3e 59 cf 51 3d 2e 3f b7 3d cb a5 86 3e
       0.4051637 0.051223133 0.089475974 0.26298365
000390 37 fa fa bb c5 00 4c 3e ce 03 50 3e 35 7b f0 3e
       -0.0076592225 0.19922169 0.20313951 0.46969
0003a0 9b b8 41 3e 36 9b 27 3e 4e 90 2b be 1a 49 84 3e
       0.18918078 0.16367802 -0.16754267 0.25837022
0003b0 6c 71 8f 3e 34 7c 04 3e 31 6d 95 bd e7 4a 95 3e
       0.28016222 0.12938005 -0.07296217 0.29158708
0003c0 13 64 01 3e 3f e4 c7 3e 1c 2e df 3d 35 89 e2 be
       0.12635832 0.39041325 0.108974665 -0.44245306
0003d0 28 c2 59 3e d6 da 9c be d6 87 cd 3e a3 44 86 3e
       0.21265471 -0.3063571 0.40142697 0.2622424
0003e0 69 f2 7f 3e 08 46 a1 3d cc 4b 2f 3f a5 75 1b 3f
       0.24994816 0.078746855 0.6847503 0.60726386
0003f0 e3 60 4e 3e 04 0b 77 3e 2b 3b f2 3e 84 1c ee 3e
       0.20154147 0.24125296 0.47310767 0.4650613

l1.bias f4 [8]
000000 4f d3 c1 3e b0 58 29 3f 19 c0 25 3f 87 8a e7 3e
       0.37856528 0.6615095 0.6474624 0.45222875
000010 f8 ae 05 3f 41 5a f3 3e 04 64 f3 3e a1 ba 11 3f
       0.52220106 0.47529796 0.47537243 0.569254

l2.weight f4 [8, 8]
000000 ab 01 96 3e ba 67 01 3e 4e 0e 30 bf c5 d4 87 3f
       0.29298148 0.12637225 -0.6877183 1.0611807
000010 9d 6b 7f 3e 21 ca 59 3e 4f 23 50 3f bb fc 98 3d
       0.24943395 0.21268512 0.81303877 0.074700795
000020 57 51 4d be 95 c7 cd bd d9 8f a4 3c a9 2e 60 bc
       -0.2005056 -0.10047833 0.020088123 -0.013683
000030 61 87 8f be 02 d1 68 bd 99 78 dd 3c 6c 95 a2 be
       -0.28032973 -0.05683995 0.027035045 -0.31754625
000040 29 00 41 3f 82 3f 28 be cd cd 1a bf e4 36 c9 3e
       0.7539087 -0.16430476 -0.6047028 0.3929969
000050 18 e4 8b 3e 2c b2 4e 3f 93 eb 17 bf a2 08 d9 be
       0.2732246 0.8074062 -0.5934383 -0.423894
000060 85 90 21 3f d4 7c 06 bf b0 cd 1e be 1e 4f 47 3f
       0.63111144 -0.5253422 -0.15508151 0.778551
000070 8c f0 96 3e dc ae fe 3d 79 bc 38 3f 86 d8 d8 be
       0.29480398 0.124356955 0.72162586 -0.42352694
000080 38 6e 36 be 58 b6 2b 3f 0f 89 2b 3e 33 9a 98 3e
       -0.17815483 0.6707511 0.16751502 0.29805145
000090 ee 52 55 be f0 a4 2b 3f ca f1 ee 3e 44 9a 45 3f
       -0.20832416 0.6704855 0.46668845 0.77188516
0000a0 a0 a9 3b 3f 50 90 be 3e 8e 55 8d 3f 73 6f a0 3e
       0.733057 0.37219477 1.1041734 0.3133503
0000b0 d0 5a 86 3f 1a a9 36 bf 05 7e d5 3e 7b 63 ca be
       1.0496464 -0.7135178 0.41697708 -0.39529023
0000c0 95 2e 50 bf 82 07 0a bf 33 df b9 3e 38 49 ec bd
       -0.8132108 -0.53917706 0.363031 -0.11537403
0000d0 8c cb 1c 3e 46 10 fa 3e 76 ab 88 bf 03 07 64 3f
       0.15312022 0.4884054 -1.0677326 0.890732
0000e0 41 35 8b be 60 3e 8c be 73 b8 89 be 09 48 33 be
       -0.27189067 -0.27391338 -0.26898536 -0.17507948
0000f0 77 3c 9b 3e dd 8f 88 3e 3a 67 4a 3e 00 88 1c bd
       0.3031957 0.2667226 0.1976594 -0.038215637

l2.bias f4 [8]
000000 13 7e 45 3e 2a 80 c3 3d 54 a2 e9 3c c1 3e e6 3c
       0.19286375 0.0954593 0.028519787 0.028106095
000010 d7 76 da 3e 76 22 10 3e 8c fc 20 3f 24 1f 3c be
       0.42668793 0.14075646 0.62885356 -0.18371254

l3.weight f4 [6, 8]
000000 b9 00 51 bf bf ab 13 3e 2b e8 20 bf b7 ce 4b bf
       -0.8164173 0.14420985 -0.6285426 -0.79612297
000010 4d 95 b9 3e db 76 1a bf 6e 12 5f 3f be 35 67 3e
       0.3624672 -0.6033761 0.87137496 0.22579095
000020 8c cb ff be 90 0c 7f 3e 38 2f 0d bf b5 d3 13 bf
       -0.4995998 0.24907136 -0.55150175 -0.57744914
000030 e6 3b 77 be e6 d5 44 bf e0 0a b3 be 94 93 b3 be
       -0.24143943 -0.76888883 -0.34969234 -0.3507353
000040 fe 66 12 bf a4 a8 78 bd 56 f2 22 be 44 21 b5 bf
       -0.57188404 -0.060707703 -0.15912756 -1.4150777
000050 9c 12 cc bd 10 71 4d 3f 3d 72 10 bf a8 6e d2 3d
       -0.09964487 0.80250645 -0.56424314 0.10275012
000060 19 c3 1e 3f 76 ba 04 3b 97 14 2f bf ef dc 22 bf
       0.62016445 0.002025274 -0.6839079 -0.6361837
000070 96 c6 2f 3f c1 3f 3b bf 06 cf 2b bf a4 e3 93 bd
       0.68662393 -0.73144156 -0.6711277 -0.072211534
000080 cd b7 05 3f 37 1e 96 3e de d3 8e bf 53 c8 f8 3d
       0.5223358 0.29319927 -1.1158407 0.12147584
000090 7d 92 42 bf 9f 53 c2 3e 45 b7 9f be 12 d3 6a be
       -0.76004773 0.37954423 -0.3119451 -0.2293208
0000a0 c9 c7 c5 3e 2b 38 98 3e 31 51 46 3f ed 62 15 3e
       0.38628986 0.29730353 0.7746764 0.14588518
0000b0 e5 a4 5a bf b5 17 80 be 1d a5 82 be 90 78 48 bd
       -0.8540786 -0.25018087 -0.25516596 -0.048943102

l3.bias f4 [6]
000000 95 0d ec 3e cb 92 9b be 5c d7 02 3f 3d 63 8e 3e
       0.46104112 -0.30385432 0.5110986 0.27810088
000010 00 08 6b be b9 96 32 be
       -0.2295227 -0.17440309
