server/config.pth (torch, 4503 bytes, 6 tensors)

l1.weight f4 [8, 45]
000000 03 49 74 3e c4 e3 1a bd 57 d2 8f 3b 3a f5 35 3d
       0.23855977 -0.03781487 0.004389088 0.04442332
000010 10 00 bd bb aa 25 1f bd ec 9c 1b 3d 24 f1 43 be
       -0.0057678297 -0.03885428 0.03799145 -0.19134957
000020 a3 17 1e 3e af f4 8f 3d 85 4e 6b 3e 24 21 47 3e
       0.15438704 0.070290916 0.22979172 0.19446236
000030 0a 0a 08 3e a4 08 38 bd 80 92 9e 3e fd 6f 57 3e
       0.1328508 -0.044930115 0.30971146 0.21038814
000040 41 5d 13 3d af 4b c4 3c 3d 3c 3e 3d 55 44 a7 3d
       0.035977606 0.02396187 0.046444166 0.0816733
000050 3f b1 80 3e 55 a6 49 3e 05 2d 9e 3e e5 d1 91 3d
       0.25135228 0.19692357 0.30893722 0.07120112
000060 5c 79 65 be 52 7c 9a 3e 41 aa 82 3e 7e 08 5d 3e
       -0.22409576 0.30172974 0.25520518 0.21585271
000070 90 3b 4f 3e 14 39 a7 3c 13 09 cb bc 27 83 87 be
       0.20237565 0.02041296 -0.0247846 -0.2646725
000080 d6 a2 ce bd b1 17 c6 3e 6e 66 b6 3e dc b3 cc 3d
       -0.10089652 0.3868995 0.35625023 0.09995243
000090 52 2c 14 3e a2 42 28 be fc cb 43 3e c1 17 88 3e
       0.14470032 -0.16431668 0.19120783 0.26580623
0000a0 5c 2e 4d bd 1d 2f 06 3c 44 1b af bb c0 77 39 3e
       -0.05009304 0.008189944 -0.0053438265 0.18112087
0000b0 3d 60 d5 bc 2c ab 22 3e ad e7 3d 3e 2b 42 8c 3e
       -0.026046867 0.1588561 0.18545409 0.27394232
0000c0 ce da 0c 3e cc fb 7b 3e 90 b3 17 3e 61 6e 70 3e
       0.13755342 0.24607772 0.14814591 0.23479606
0000d0 69 4f 41 3e 7a 11 29 3e 85 f9 d8 3d df 8f c5 3e
       0.18877949 0.16510573 0.10594467 0.38586327
0000e0 91 1f 07 3e ae 83 68 3e 0d 8c 42 bd 87 49 89 3d
       0.13195635 0.22706482 -0.047496844 0.06703477
0000f0 fa c7 8f 3d b6 47 af 3e 21 39 c5 3e b9 b5 be 3d
       0.070205644 0.342344 0.38520148 0.093120046
000100 c0 ce 23 3e 6e 8c af 3e 59 d4 c1 3c 35 50 c6 3e
       0.15996838 0.34286827 0.023660826 0.38733068
000110 e9 08 87 3e 08 b0 40 3e 62 90 0b 3e 99 f7 f2 3c
       0.26373985 0.1881715 0.13629296 0.02965908
000120 d9 01 83 3d 63 3e 94 3e 6e 47 cd 3d de 14 a0 3d
       0.06396837 0.28953847 0.1002339 0.0781648
000130 8a f0 82 3e f3 a1 ff 3c a2 a8 f6 3e f6 f2 54 3e
       0.25574142 0.031205153 0.48175532 0.20795807
000140 1d 0d 20 3d 34 b7 dc 3c 81 34 9c bd 19 09 e9 3e
       0.039075006 0.026942827 -0.07627202 0.45514753
000150 4e 76 2f 3e d9 53 04 3e 5e b0 9d 3d 25 3f 9a 3e
       0.17134973 0.1292261 0.07699655 0.301263
000160 47 c8 9f 3e d2 70 04 3e 8b 7a 04 3d 86 eb e7 bd
       0.31207487 0.12933663 0.03234343 -0.113242194
000170 1c f4 f3 3c 89 da fc bd 92 21 43 3c 7f dd 84 bc
       0.029779486 -0.1234637 0.011909859 -0.016218899
000180 11 5b eb bd c0 65 68 3e 63 47 b3 3d 45 7a 14 3e
       -0.11491979 0.22695065 0.0875385 0.14499767
000190 9b 8d 93 be ce 56 cb bd 5a 75 85 be ed d1 0c be
       -0.28818974 -0.09928666 -0.26066095 -0.13751955
0001a0 0e ee 06 3d 06 cf ac bd 0c 91 8b bb 6e 69 bc 3d
       0.03294187 -0.08437924 -0.0042592343 0.091997966
0001b0 6a 0f 5f 3e 42 be ec 3d 5b 72 a2 3d c6 98 ec bd
       0.21783224 0.11559726 0.07931968 -0.11552577
0001c0 c2 4c 09 be 1f 51 16 bc 70 1e 7c 3e 13 fe 12 3e
       -0.13408187 -0.009174614 0.24620986 0.14354734
0001d0 56 84 d2 3d 72 2c 02 be 50 bc 47 bd 11 a2 10 be
       0.10279147 -0.12712267 -0.048763573 -0.14124323
0001e0 61 8b 7a 3d 11 58 ec 3e f5 e5 69 3e e5 5c 37 be
       0.06116808 0.4616094 0.22841628 -0.1790653
0001f0 52 3e 1b be 35 ac c7 bd 39 a9 ac bd b4 6c 55 3b
       -0.15160492 -0.09749643 -0.08430714 0.0032566013
000200 a7 e1 70 be c8 b7 22 3e a2 7d 35 3e 09 81 82 3d
       -0.2352358 0.1589042 0.17723706 0.06372268
000210 da e3 44 3e 7a ac cc 3c 57 e3 f3 3d 16 a6 2e 3e
       0.19227543 0.024984587 0.11908596 0.17055544
000220 1c 0e 0b be 86 2a 9f 3d e0 a5 a8 bc 1e c3 40 3e
       -0.13579601 0.077717826 -0.020586908 0.18824431
000230 38 f2 7d 3d 88 d9 3d bd c7 ad 92 3e da 3a 1d bc
       0.061998576 -0.046350032 0.28648207 -0.009596551
000240 60 02 95 3c 02 34 55 be 9c f2 cd bc 0e ab 2b be
       0.018189609 -0.2082062 -0.0251401 -0.16764471
000250 b5 14 7a 3d 92 fb 42 bc 36 6a cd bd 60 61 49 3e
       0.061054904 -0.011900799 -0.10030024 0.19666052
000260 5f a1 8e bc 86 61 52 3e 17 35 e6 ba 69 b5 c5 3c
       -0.017410932 0.20545015 -0.001756343 0.024134355
000270 d1 26 d5 3c bd 2b 4f bd 61 76 18 bd 80 ac 6a 3e
       0.026019486 -0.05057882 -0.03722227 0.22917366
000280 77 2a 5f 3c 7a ea 08 be 6e b2 52 bd 08 93 6e bd
       0.013620964 -0.13370696 -0.051439695 -0.05824569
000290 00 c2 e5 ba 33 52 11 3e ca db 92 3e 2a 2f ce 3e
       -0.001752913 0.14191513 0.2868331 0.40270358
0002a0 fe 2b 8b be 5c c4 8d be d6 bb b5 bd 2d 62 ef bb
       -0.27182 -0.27688873 -0.088737175 -0.0073054046
0002b0 bc b6 23 3d 1a 46 c9 be 9c c4 ae 3d 94 03 0f 3c
       0.03996919 -0.39311296 0.08533594 0.00872888
0002c0 38 76 8b 3c e1 0e 3f 3e 9f f3 24 be ae ee 16 bd
       0.017024145 0.1865802 -0.16108559 -0.036848716
0002d0 d3 cb 9e 3e fc 75 87 3d 45 ac 5a 3e 9f c5 9c 3d
       0.3101488 0.066143006 0.21354778 0.07654881
0002e0 1a 64 1d 3e 91 8a 80 3d 2e 2a 91 3c 69 42 98 3e
       0.15370217 0.062764294 0.017720308 0.29738167
0002f0 3b d6 ab 3e be eb 57 3e 12 34 89 3e aa cd 3f 3e
       0.33561882 0.21086022 0.2679754 0.18730798
000300 45 67 12 3e 61 56 38 bb f5 d5 83 3e 28 e5 3d 3e
       0.14297207 -0.0028127658 0.25749174 0.18544447
000310 a5 3c ce 3d 6b 56 86 3e af 30 67 3e a7 62 3b 3e
       0.10070161 0.26237807 0.22577165 0.18299352
000320 dc b2 93 3e a3 c4 28 3e 04 6c d0 3e 94 f6 7d 3e
       0.28847396 0.16481261 0.4070741 0.24801093
000330 33 bf a2 3e 67 1b 9c 3d 10 7f 8e 3d 94 20 9e bc
       0.31786498 0.07622414 0.06957829 -0.019302644
000340 ef cf 2e 3e ab 3c 61 3e 2a 95 08 3e e7 0a 57 3e
       0.17071508 0.21995799 0.13338152 0.21000253
000350 d8 e6 b6 3e 9a 48 4f 3e 5e a8 1d 3e af 0d 2f 3e
       0.35722995 0.20242539 0.15396258 0.17095064
000360 68 da 42 3e a4 d6 52 3e 9c 82 3d 3e d5 7f 2f 3e
       0.19028628 0.20589691 0.18506855 0.17138608
000370 09 85 89 3e 1b b2 72 3c ab 6e 24 3e bc 75 f7 3d
       0.2685931 0.014812971 0.16057841 0.12083003
000380 61 e1 79 3d 3b d9 ed 3b af 13 93 bd 20 02 af bd
       0.061005954 0.007258562 -0.07181489 -0.08545327
000390 9b f2 01 be 86 1b f9 bc 32 80 0c be b3 74 1b be
       -0.12690203 -0.030408632 -0.13720778 -0.15181236
0003a0 fa de d1 3e 54 2b f3 bc 92 4e 5b 3c 97 ec 28 be
       0.4099043 -0.029683746 0.013385432 -0.16496502
0003b0 17 9a 11 be 53 02 6b be 59 2a 71 3c 91 94 8c bd
       -0.14218937 -0.22950105 0.014719569 -0.06864274
0003c0 05 23 52 bd f5 a1 c9 bc 7b 77 13 3d 11 85 03 bd
       -0.05130293 -0.02461336 0.036002617 -0.032109324
0003d0 ce 50 04 3d c0 47 0d 3e 75 e8 00 be 44 7a 2d be
       0.032303624 0.13796902 -0.12588675 -0.16941172
0003e0 0a ac 12 3e 33 78 02 3e a7 1e d0 bd 43 d9 b7 bc
       0.1432344 0.12741165 -0.101620965 -0.022442466
0003f0 f7 b7 2e 3d 72 4b 4d bd 6a c3 7a 3c e2 e2 c3 bc
       0.04265591 -0.05012078 0.015305379 -0.023911897

l1.bias f4 [8]
000000 ec 42 c1 3e f3 3d 80 3e 7d 45 3b 3e 7f 87 67 3e
       0.3774637 0.25047264 0.18288226 0.22610281
000010 3c ab 03 3f be ad 82 3e 78 be bb 3e 23 ef 32 3e
       0.5143316 0.2552318 0.36668754 0.17474036

l2.weight f4 [8, 8]
000000 ef 3c 2e be b2 af 59 3e 67 bc 0c 3f 7d 60 00 3f
       -0.17015432 0.21258429 0.5497498 0.5014723
000010 9b 54 95 3e 1f f0 06 3f 73 ee ef be 7c c6 17 3e
       0.2916611 0.52710146 -0.4686161 0.1482181
000020 d9 35 52 be 5d 91 8d 3e 79 78 71 3e c6 10 b9 3e
       -0.20528354 0.27649966 0.23581113 0.3614561
000030 51 32 e3 3e 6a 5b 95 3e a3 0d 46 be 76 1c 0f 3f
       0.44374326 0.29171306 -0.1934114 0.559028
000040 d0 5d fc be f5 f6 56 3e 3f 0b 9d 3e 7e ee ca 3e
       -0.49290323 0.20992644 0.30672643 0.3963508
000050 40 d8 d6 3e 1c cc b1 3e fb 15 32 bf fb 6a 58 3e
       0.4196186 0.34726036 -0.6956479 0.2113456
000060 0b 49 44 3f 22 86 32 3f 8c cd f8 3d 07 d0 67 be
       0.76673955 0.6973592 0.1214858 -0.2263795
000070 db 25 27 3f 46 f5 8f be bf ba 2a 3f c2 77 a0 be
       0.6529214 -0.28116816 0.666912 -0.31341368
000080 72 e0 25 bf f1 49 1a 3e ba a6 1d 3e 6e 32 33 3f
       -0.647956 0.15067269 0.15395632 0.69998825
000090 40 f5 c5 3e 91 13 0b 3f 48 20 42 be 8c a5 b0 3d
       0.38663673 0.5432673 -0.18957627 0.086253256
0000a0 da 3d 33 3f 64 d5 09 3f 8d 67 95 be 52 da 34 be
       0.70016253 0.53841233 -0.29180565 -0.17661408
0000b0 74 a4 17 3f 0e dc 59 be 2b 67 45 3f ab df b3 be
       0.5923531 -0.2127535 0.77110547 -0.35131583
0000c0 38 a7 24 be a4 49 87 3d 9b 2c 52 3e 17 8f 1b 3f
       -0.16079414 0.06605843 0.20524828 0.6076521
0000d0 63 14 15 3e a9 e4 3e 3f d8 30 9f be 52 92 ae 3e
       0.14558558 0.7456766 -0.31091952 0.3409601
0000e0 a3 bb 1d be 0c 54 95 bd c1 8e fb 3e eb 96 0e 3f
       -0.15403609 -0.07291421 0.4913235 0.5569903
0000f0 6c 10 a8 3e f9 49 18 3e 74 c7 a2 bd 72 72 99 3e
       0.3282503 0.14871968 -0.07948199 0.29970127

l2.bias f4 [8]
000000 03 33 fb bd e7 8b a1 3e 03 67 a8 3e 13 81 02 3f
       -0.12265589 0.3155205 0.32891092 0.509782
000010 0c d9 d7 3b 36 6d d2 3e 18 85 33 3d 64 a8 52 be
       0.0065871533 0.41098946 0.0438281 -0.20572048

l3.weight f4 [4, 8]
000000 9a 23 97 be 84 22 0e bf 02 e8 7c bd 7c 8f 17 bf
       -0.2951935 -0.55521417 -0.061744697 -0.59203315
000010 87 82 1f bf 9e 08 0f be 34 4b de be 0f b7 09 bf
       -0.62308544 -0.13968131 -0.4341675 -0.5379495
000020 49 ba 13 3f 8d 0d b6 3d 12 3e 01 3f 6a d0 be be
       0.57706124 0.08889303 0.50485337 -0.37268382
000030 9d e8 b3 3e 7e 0d b4 be b3 67 11 3f c6 d3 2a 3f
       0.35138407 -0.35166544 0.5679886 0.6672939
000040 a9 5f 21 bf cb a6 03 be 35 41 2d 3c e3 e1 9e 3e
       -0.6303659 -0.12856595 0.010574629 0.31031713
000050 8c c1 b8 be 2b ad 36 3f 48 18 65 bf 64 ba 20 bf
       -0.36085165 0.71357983 -0.89490175 -0.6278441
000060 49 1b 00 be 35 54 fb be fc 20 45 bd 3c 11 02 bf
       -0.12510408 -0.49087682 -0.04812716 -0.5080755
000070 d8 fa 62 be dd 04 04 bf e0 5b 65 bf ee ce 1a bd
       -0.22166002 -0.5156992 -0.89593315 -0.037795

l3.bias f4 [4]
000000 c8 ad 8a be 22 03 6b be 46 cc 5f bc c6 23 84 be
       -0.2708571 -0.22950414 -0.013659542 -0.25808543
